alas-backend/app/db/models/rahul_model.pt (torch, 3568 bytes, 5 tensors)

fc.0.weight f4 [16, 4]
000000 52 a7 95 3e 1c 39 e7 3e ba d0 86 3e c4 47 f6 be
       0.29229218 0.45160758 0.2633112 -0.48101628
000010 94 9f 51 be ec 77 8f be e4 85 16 be bc e6 0c 3e
       -0.2047103 -0.2802118 -0.14699513 0.13759893
000020 a5 43 83 3e 7e ed a1 3c 6f 2b cb be 28 60 af bd
       0.25637546 0.019766565 -0.39681575 -0.08563262
000030 00 34 6a 3a 26 23 bd be 9c cb 83 be bc 4d bf be
       0.000893414 -0.3694088 -0.2574128 -0.37363994
000040 30 36 6a 3d b4 bf ed be ce 67 b6 be 40 07 fc 3e
       0.057180583 -0.4643532 -0.35626072 0.4922428
000050 fc 65 ef be d4 35 3f be fc ba 5a be 8a 77 8b bd
       -0.46757495 -0.18672878 -0.21360391 -0.0680991
000060 46 d4 ae 3e 7e 51 72 3d 60 6f ab be a0 74 d0 3e
       0.34146327 0.05915975 -0.3348341 0.40713978
000070 40 c4 45 bd 08 3c d1 be 4a 8d d6 3e 20 48 43 3e
       -0.04828286 -0.40866113 0.4190467 0.19070482
000080 a0 f0 20 3e c0 7e 38 be 13 61 33 3e 58 76 79 be
       0.15716791 -0.18017101 0.175175 -0.24361551
000090 c6 d7 aa be d0 5f ec be 16 2b 9b 3e fa 57 c1 be
       -0.33367747 -0.4616685 0.3030631 -0.37762433
0000a0 44 50 65 be 80 c7 fc bd be b8 91 bc 36 04 fd be
       -0.223939 -0.12342739 -0.017788287 -0.49417275
0000b0 62 3f d8 be 1c 7b dd be d2 d1 d7 be 80 85 d4 bd
       -0.42235857 -0.43257987 -0.42152268 -0.103770256
0000c0 40 69 9d be 31 01 d5 bd 0d 8e 01 3f 8e 56 ad 3d
       -0.30744362 -0.10400618 0.5060738 0.084637746
0000d0 1c b0 48 be 98 1d 3e 3e 72 66 f8 3e 34 2c 1d be
       -0.1959843 0.18565977 0.4851566 -0.15348893
0000e0 40 85 a9 bc 44 10 90 be 22 c5 6a bd c0 ea 54 be
       -0.020693421 -0.2813741 -0.057316907 -0.20792675
0000f0 c2 bb b6 3e a3 b5 11 3e 28 2f 27 be 6e fc d9 be
       0.35690123 0.14229445 -0.16326582 -0.425754

fc.0.bias f4 [16]
000000 7c 80 82 3d 58 2f 89 be 7b 8a dd 3e 10 d8 84 be
       0.06372163 -0.26793933 0.43269715 -0.25946093
000010 68 4b e9 bd 80 9c b0 3e e2 6e fb be bc 4c f2 be
       -0.11391336 0.344944 -0.49108034 -0.4732417
000020 85 67 0b be 10 83 bc bd f0 22 78 3e 80 55 dd 3b
       -0.13613708 -0.09204686 0.24232078 0.006754577
000030 a6 01 e1 3e 20 94 4f bd 9c 17 e3 3e 67 ec fd bd
       0.4394657 -0.050678372 0.4435395 -0.12398606

fc.2.weight f4 [8, 16]
000000 cd c6 2f 3e 8c b8 b6 bd 86 7a 94 3e 66 e9 33 be
       0.1716568 -0.08921918 0.28999728 -0.17569503
000010 a8 35 7b bd c8 d9 11 3e 64 cd 5b bd de f5 12 be
       -0.061330467 0.14243233 -0.053662673 -0.14351603
000020 58 ea e3 bc 20 37 72 be df 48 13 3e e2 45 49 3e
       -0.027821705 -0.23653841 0.14383267 0.19655564
000030 bf 16 db 3d ec 0e ce bc af b4 1a 3d 39 5e 8a 3e
       0.10697698 -0.0251536 0.03776997 0.2702501
000040 cd de 2a bc 8c 1c 81 3d 6d 1d 72 bc ee a0 72 3e
       -0.010429096 0.06304273 -0.014777523 0.23694202
000050 18 d4 32 3e 22 c1 4b be 9a 1b 5a be 60 1c 5e be
       0.1746372 -0.19897893 -0.21299592 -0.21690512
000060 d4 2c 26 3e 8c f1 b0 3d 00 55 d9 3d 8e 0a 1d be
       0.16228038 0.086398214 0.106119156 -0.15336058
000070 f9 f4 c7 3d 2e 4b 43 be 97 92 1d 3d 64 c1 ea bd
       0.09763522 -0.19071648 0.038469877 -0.114626676
000080 de 7a f6 bd 72 7f 1c be 35 06 fa 3d 28 05 45 bd
       -0.12035154 -0.15282992 0.12208215 -0.04810062
000090 24 64 23 be 04 a1 d0 bd 9a 04 96 bc b8 90 55 3e
       -0.1595617 -0.10186961 -0.018312741 0.20855987
0000a0 83 cc 53 bd d0 59 24 be 14 64 a8 bd be b9 67 3e
       -0.05170871 -0.16049886 -0.082222134 0.22629449
0000b0 c8 d3 56 bd 54 5b 32 be e2 1a 17 be 6b 7c 07 3e
       -0.052448064 -0.17417651 -0.14756349 0.13231055
0000c0 3f 8e 83 be 54 a1 de 3d b2 0d 16 be 98 dc 79 3e
       -0.25694463 0.10870615 -0.14653662 0.24400556
0000d0 20 30 8f bd 1c 7a 39 3e 10 b3 03 3e cc a3 41 be
       -0.06991601 0.18112987 0.12861276 -0.1891014
0000e0 4c 5e 92 bd 9e 0c 4f 3e c8 34 2e 3e 58 c1 37 bd
       -0.07146892 0.20219657 0.17012322 -0.04486212
0000f0 b6 f7 52 3e ed b2 66 3e 88 00 1a be 6c de be 3d
       0.20602307 0.22529192 -0.15039265 0.09319767
000100 c6 a4 bf bd e0 5c d8 3c e1 63 40 bd 08 87 4c 3d
       -0.093576 0.026411474 -0.046970252 0.049933463
000110 aa 76 2a be 0b 95 1e bc 1f dc 02 3e 86 ea 42 be
       -0.16646829 -0.009679089 0.12779282 -0.19034776
000120 46 a2 39 3e 38 7b ee bd 80 c5 2a 3e 94 d5 67 be
       0.18128309 -0.11644596 0.16676903 -0.22640067
000130 6c 3e d7 3d 1a eb 59 be 44 18 a1 bd 62 b0 dc bd
       0.10509953 -0.2128109 -0.078659564 -0.1077583
000140 fd 5e 35 3e e4 e9 89 bd 7a 8f 0a bc c8 9b 14 3d
       0.17712016 -0.06734064 -0.008457059 0.036281377
000150 60 98 63 3e a7 89 00 be c0 35 02 3d fe 0f 00 be
       0.22226095 -0.1255251 0.03178954 -0.125061
000160 5e a9 66 3d e0 31 79 be 88 41 b6 3d 40 c2 8e bc
       0.056313865 -0.24335432 0.08899218 -0.01742661
000170 37 20 04 3e 5e 44 54 be 68 4d 52 be fb 3c 30 3e
       0.12902914 -0.20729205 -0.2053734 0.17210762
000180 2f 6a ca bd ac fd b1 bd 05 2f 9e bd 30 07 af 3c
       -0.09883534 -0.08690962 -0.07723812 0.021365732
000190 50 aa 74 3d 74 47 bc 3d 28 c3 48 be 06 cb 37 be
       0.059732735 0.09193316 -0.19605696 -0.17948541
0001a0 b0 13 35 bd f0 eb d1 bd e9 32 25 3d 3c 61 3e 3e
       -0.04420823 -0.1025008 0.040331755 0.1859178
0001b0 2e 54 0f bd a3 b4 33 3e e4 b6 5c be 6c 6b 11 be
       -0.03499239 0.17549376 -0.21554142 -0.14201134
0001c0 00 d0 8d ba cc 3a f9 3d 1c 1a d9 bd 1a 0e 20 be
       -0.0010819435 0.12169418 -0.10600683 -0.1563038
0001d0 f8 37 b7 bd cc f4 13 be a2 1e 5d 3e f4 4a 8a 3d
       -0.08946222 -0.14448851 0.21593717 0.067525774
0001e0 d4 9a 29 be bc b6 8b 3d c8 7d a5 bd 30 dd 48 3d
       -0.16562968 0.06821963 -0.080806315 0.049039066
0001f0 8a 00 39 3e ec 59 7b be 7a ed 2f 3e 88 a0 13 be
       0.18066612 -0.24546021 0.17180434 -0.14416707

fc.2.bias f4 [8]
000000 ac c7 e8 bc aa 00 6d 3d fc a2 8e be f4 a0 a4 bc
       -0.028415523 0.05786196 -0.27858722 -0.02009628
000010 fa 3a a6 3d c5 31 fd 3d a2 19 72 3e 82 45 56 be
       0.08116718 0.123630084 0.2364259 -0.20924953

fc.4.weight f4 [1, 8]
000000 4b c9 ea bd 88 2f 9f 3e 88 1c cd 3c dd f7 84 be
       -0.11464175 0.3109095 0.025038019 -0.25970355
000010 7a a0 ca 3c cb 2c 82 be 2f 2b 59 3e 92 7c a2 be
       0.024734724 -0.254248 0.2120788 -0.31735665
