alas-backend/app/db/models/suppi_model.pt (torch, 3568 bytes, 5 tensors)

fc.0.weight f4 [16, 4]
000000 f0 d3 51 bd 9a 45 95 be 9a 35 9a be 24 42 ce be
       -0.05122751 -0.29154664 -0.3011902 -0.40284836
000010 f0 a2 50 bd 6e 73 de be 00 4c 37 3c 12 21 f1 be
       -0.05093664 -0.4344744 0.011187553 -0.47095543
000020 80 36 9f bd a6 a0 a9 3e 6a a1 ee 3e 6a 54 92 3e
       -0.07774067 0.33130378 0.46607524 0.28580028
000030 17 ac d3 3e b3 f3 55 3e 7e 88 4b 3e 28 32 7e 3e
       0.41342232 0.20893745 0.19876286 0.2482382
000040 62 96 ad 3e 22 e6 9f be 78 59 01 bf 80 ab fe bc
       0.33903795 -0.31230265 -0.50527143 -0.031087637
000050 be 1c c8 3d 7e 7e d5 3e 60 c3 c7 3e 80 c5 f9 3d
       0.09771107 0.41698068 0.39016247 0.12195873
000060 27 28 b7 3d ee e5 bb be c0 c8 b8 3e 7c 57 72 be
       0.08943205 -0.3669886 0.3609066 -0.23666185
000070 60 d3 22 bd 80 71 2a be f0 d1 99 bd 82 2c c3 be
       -0.039752364 -0.1664486 -0.075107455 -0.38119894
000080 11 58 e3 3d d1 52 bb 3d 30 f2 13 be 6c f5 02 3e
       0.11100782 0.09146655 -0.14447856 0.12788934
000090 5c 0b b2 3e 52 18 d9 be c9 b8 bd bd f4 b9 75 3e
       0.34774292 -0.42401367 -0.092637606 0.23996717
0000a0 60 6e 2f be 74 8f 22 be 00 81 82 bd e4 5f c9 be
       -0.17131948 -0.15875036 -0.06372261 -0.3933097
0000b0 16 57 21 be 50 8d 77 3e fb 31 bb 3d 50 9a e2 bd
       -0.15755877 0.24175 0.091403924 -0.11064589
0000c0 cb c1 8b 3e 36 06 80 3e 88 17 75 be 10 85 14 be
       0.2729629 0.2500474 -0.23934758 -0.14503884
0000d0 36 11 00 bf a3 df fc bc fc 5b 8c 3e 36 d6 e8 3e
       -0.5002626 -0.030868357 0.27413929 0.4547593
0000e0 ba 7e ee be 30 4d df 3d 48 fe c9 3d 24 6c 84 be
       -0.4658106 0.10903394 0.098629534 -0.25863755
0000f0 48 33 91 bd c0 97 f2 bd a0 59 c6 3d c0 18 a0 bc
       -0.07089859 -0.1184535 0.09685063 -0.019543052

fc.0.bias f4 [16]
000000 c2 3d c2 be 44 d0 88 3e 8c f8 54 be 4c c3 92 bd
       -0.37937742 0.26721394 -0.20797938 -0.07166156
000010 58 25 a4 3e 8f a6 41 3e c0 5c 90 3d 10 61 8e 3e
       0.3205974 0.18911193 0.07048941 0.27808428
000020 9e 37 ae be 17 51 8f 3d 98 40 32 be 4b cc c3 3d
       -0.34026808 0.069978885 -0.17407453 0.0956045
000030 17 c8 eb bd 80 99 9f 3e 48 8d e0 bd 94 2d d5 be
       -0.115127735 0.311718 -0.10964447 -0.41636336

fc.2.weight f4 [8, 16]
000000 98 0d 71 3d 20 a3 46 bc 22 db 4f bd 7d f5 6b be
       0.058850855 -0.012123853 -0.05074609 -0.23042865
000010 96 e8 1e 3e bb 71 cc 3d 40 8b f6 bb 04 6d 2a be
       0.15518412 0.0998263 -0.007523924 -0.16643149
000020 da 1a 5e 3e a4 fa c3 bd 90 41 d6 bd 16 c9 78 3d
       0.2168993 -0.0956929 -0.10461724 0.060738645
000030 a4 f1 81 bc 4d 7f 07 3e 1e c5 2f be d4 66 28 3e
       -0.015862294 0.13232155 -0.17165038 0.16445476
000040 6a 2e 25 3e 54 58 2a be 16 88 30 be 44 19 40 be
       0.16130987 -0.16635257 -0.17239413 -0.18759638
000050 f2 3c 0b 3e ca a6 4a be 30 e5 c5 3d 28 dc 1c 3e
       0.13597468 -0.19790187 0.09662855 0.15318358
000060 5c 78 9d 3d 76 96 46 be 64 d4 78 3e 34 a5 7d 3e
       0.07688972 -0.19393334 0.2429977 0.24770051
000070 a4 cd e2 bd b6 86 72 be e4 d1 4c be 26 6c 79 3e
       -0.11074379 -0.236842 -0.20001942 0.24357662
000080 bc 10 ac bd e8 6a f5 bd 62 7e 12 bd 9b 56 78 3c
       -0.08401629 -0.119832814 -0.03576506 0.015157367
000090 bc 52 d3 bd 62 6c 4e 3e 00 5b 37 be ac a0 33 be
       -0.10318515 0.20158532 -0.17905807 -0.1754176
0000a0 b0 da ee bd a8 9c 45 bd 42 53 55 3e fc 3f 8a 3d
       -0.11662805 -0.048245102 0.20832542 0.06750485
0000b0 36 17 7c be 47 95 b5 bd 6c 55 2b 3e 74 98 1c 3e
       -0.2461823 -0.08866363 0.16731805 0.15292531
0000c0 a8 5d 16 be 78 28 50 3d 3e 17 20 be e6 64 d3 bd
       -0.14684165 0.050819844 -0.15633866 -0.10321979
0000d0 59 70 45 3e 82 63 02 3e cd 86 48 be 78 b1 fa 3d
       0.19281138 0.12733272 -0.19582672 0.12240881
0000e0 34 b9 b9 bc d7 c5 13 3c a4 e4 7e 3e 9a 44 6d bd
       -0.02267132 0.009019337 0.24891907 -0.05792675
0000f0 b9 7a ac bc 4c 20 40 3e 18 50 7d be c0 f4 c3 3d
       -0.021054612 0.1876232 -0.24737585 0.09568167
000100 bc d9 0c be d6 f9 01 3e 03 d1 a4 3d e2 41 b2 bd
       -0.13754934 0.12692961 0.08047678 -0.087039724
000110 9b b3 06 3e ba 8f 63 3e bb c0 ee 3d a4 49 a5 3d
       0.13154452 0.22222796 0.11657854 0.080706865
000120 e9 d9 8d bd 21 fe 4b 3e 64 0d 0f be cb 02 07 3e
       -0.06926329 0.19921161 -0.13969952 0.13184659
000130 b8 7f 29 be ef e6 fc bd 82 83 5e be 10 75 07 3d
       -0.16552627 -0.123487346 -0.21729854 0.033070624
000140 5c ed 37 3e 56 8f 78 3e 16 3d 5f be 74 5c f2 3c
       0.17961639 0.24273428 -0.21800646 0.0295851
000150 a9 a0 73 3e 12 83 0b 3d 86 a6 46 bd 4e be 4a be
       0.23791756 0.034060545 -0.048498653 -0.19799158
000160 83 cd 9d bd a8 07 66 3b 8c fa 3a be 8c e3 9a bd
       -0.07705214 0.0035099778 -0.18259639 -0.07562932
000170 3d 57 2c be 8a db 3e be 98 4f 5a 3e b8 a4 f9 bd
       -0.16830154 -0.18638435 0.21319425 -0.12189621
000180 92 32 0e be ea 6e 1d 3e 8d ea 43 3e 5a 90 97 3d
       -0.13886479 0.15374342 0.19132443 0.0740058
000190 2f 01 f7 3d 6e 33 3a 3e 04 ca 80 bc 58 ec 18 be
       0.12060773 0.18183681 -0.015721329 -0.14933908
0001a0 5c 04 1b be 69 4b b1 bd 54 c6 eb bd fa db 1d be
       -0.15138382 -0.086569615 -0.115124375 -0.15415946
0001b0 ea 87 f4 bd e1 4e 6b 3d ea ef 30 3e ae d5 66 be
       -0.11939986 0.05744827 0.1727902 -0.2254245
0001c0 f2 d6 3d 3e b8 df 25 3d 21 8d 00 be 70 4d 3b 3e
       0.18539026 0.040496558 -0.12553836 0.18291259
0001d0 72 29 1d bd a2 a8 cd bb 32 98 66 bd 0c 4d c6 bd
       -0.038369603 -0.006276206 -0.05629749 -0.09682664
0001e0 49 ac 88 bd f7 7a cb 3d a0 e4 ec bc ea 08 36 bd
       -0.06673486 0.09935563 -0.02891761 -0.044442095
0001f0 ee 61 91 3d 08 fe b2 bc a0 3e b8 bc f2 b0 36 be
       0.07098757 -0.021849647 -0.0224908 -0.17840937

fc.2.bias f4 [8]
000000 f8 40 4a 3e 08 0f 67 3d f1 00 d5 bd 5a 4c 3a 3e
       0.19751346 0.05641082 -0.1040057 0.18193188
000010 3a 6e 2a 3e d5 e9 6b 3e 18 08 f0 bc 4e 56 ea 3d
       0.1664361 0.23038419 -0.029300734 0.114422426

fc.4.weight f4 [1, 8]
000000 46 a0 0f 3e db e8 7d 3e 4b 0f 12 3d 75 50 81 3d
       0.14025983 0.24795859 0.035659116 0.06314174
000010 fa e3 25 3e 49 65 80 be d0 db 66 3e d1 95 f3 3d
       0.16200247 -0.25077274 0.2254479 0.118938096
